[train] Scanning 1 data dir(s)...
[train] Total: 19250, Train: 16362, Val: 2888
Model: "functional"
+--------------------------------------------------------------------------+
| Layer (type)                    | Output Shape           |       Param # |
|---------------------------------+------------------------+---------------|
| input (InputLayer)              | (None, 13, 93)         |             0 |
|---------------------------------+------------------------+---------------|
| conv1d (Conv1D)                 | (None, 7, 32)          |        14,880 |
|---------------------------------+------------------------+---------------|
| batch_normalization             | (None, 7, 32)          |           128 |
| (BatchNormalization)            |                        |               |
|---------------------------------+------------------------+---------------|
| re_lu (ReLU)                    | (None, 7, 32)          |             0 |
|---------------------------------+------------------------+---------------|
| conv1d_1 (Conv1D)               | (None, 4, 64)          |         6,144 |
|---------------------------------+------------------------+---------------|
| batch_normalization_1           | (None, 4, 64)          |           256 |
| (BatchNormalization)            |                        |               |
|---------------------------------+------------------------+---------------|
| re_lu_1 (ReLU)                  | (None, 4, 64)          |             0 |
|---------------------------------+------------------------+---------------|
| global_average_pooling1d        | (None, 64)             |             0 |
| (GlobalAveragePooling1D)        |                        |               |
|---------------------------------+------------------------+---------------|
| dense (Dense)                   | (None, 64)             |         4,160 |
|---------------------------------+------------------------+---------------|
| dropout (Dropout)               | (None, 64)             |             0 |
|---------------------------------+------------------------+---------------|
| emotion (Dense)                 | (None, 4)              |           260 |
+--------------------------------------------------------------------------+
 Total params: 25,828 (100.89 KB)
 Trainable params: 25,636 (100.14 KB)
 Non-trainable params: 192 (768.00 B)
[train] Class weights: {0: 0.5118883744212239, 1: 1.3970286885245902, 2: 4.346971307120085, 3: 0.9085961794757885}
Epoch 1/50

[1m  1/512[0m [37m====================[0m [1m16:24[0m 2s/step - accuracy: 0.1875 - loss: 1.0102
…
