…
nd setup the required libraries for your platform.
Skipping registering GPU devices...
2026-06-30 16:53:10.223252: W external/local_tsl/tsl/framework/cpu_allocator_impl.cc:83] Allocation of 96033288 exceeds 10% of free system memory.
[train] Scanning 3 data dir(s)...
[train] Total: 11682, Train: 9929, Val: 1753
Model: "functional"
┏━━━━━━━━━━━━━━━━━━━━━━━━━━━━━━━━━┳━━━━━━━━━━━━━━━━━━━━━━━━┳━━━━━━━━━━━━━━━┓
┃ Layer (type)                    ┃ Output Shape           ┃       Param # ┃
┡━━━━━━━━━━━━━━━━━━━━━━━━━━━━━━━━━╇━━━━━━━━━━━━━━━━━━━━━━━━╇━━━━━━━━━━━━━━━┩
│ input (InputLayer)              │ (None, 26, 93)         │             0 │
├─────────────────────────────────┼────────────────────────┼───────────────┤
│ conv1d (Conv1D)                 │ (None, 13, 64)         │        29,760 │
├─────────────────────────────────┼────────────────────────┼───────────────┤
│ batch_normalization             │ (None, 13, 64)         │           256 │
│ (BatchNormalization)            │                        │               │
├─────────────────────────────────┼────────────────────────┼───────────────┤
│ re_lu (ReLU)                    │ (None, 13, 64)         │             0 │
├─────────────────────────────────┼────────────────────────┼───────────────┤
│ spatial_dropout1d               │ (None, 13, 64)         │             0 │
│ (SpatialDropout1D)              │                        │               │
├─────────────────────────────────┼────────────────────────┼───────────────┤
│ conv1d_1 (Conv1D)               │ (None, 7, 64)          │        12,288 │
├─────────────────────────────────┼────────────────────────┼───────────────┤
│ batch_normalization_1           │ (None, 7, 64)          │           256 │
│ (BatchNormalization)            │                        │               │
├─────────────────────────────────┼────────────────────────┼───────────────┤
│ re_lu_1 (ReLU)                  │ (None, 7, 64)          │             0 │
├─────────────────────────────────┼────────────────────────┼───────────────┤
│ spatial_dropout1d_1             │ (None, 7, 64)          │             0 │
│ (SpatialDropout1D)              │                        │               │
├─────────────────────────────────┼────────────────────────┼───────────────┤
│ global_average_pooling1d        │ (None, 64)             │             0 │
│ (GlobalAveragePooling1D)        │                        │               │
├─────────────────────────────────┼────────────────────────┼───────────────┤
│ dense (Dense)                   │ (None, 128)            │         8,320 │
├─────────────────────────────────┼────────────────────────┼───────────────┤
│ dropout (Dropout)               │ (None, 128)            │             0 │
├─────────────────────────────────┼────────────────────────┼───────────────┤
│ emotion (Dense)                 │ (None, 7)              │           903 │
└─────────────────────────────────┴────────────────────────┴───────────────┘
 Total params: 51,783 (202.28 KB)
 Trainable params: 51,527 (201.28 KB)
 Non-trainable params: 256 (1.00 KB)
/home/vmp010/Multimodal-Recognition/.venv/lib/python3.11/site-packages/keras/src/trainers/epoch_iterator.py:74: UserWarning: `shuffle=True` was passed, but will be ignored since the data `x` was provided as a tf.data.Dataset. The Dataset is expected to already be shuffled (via `.shuffle(buffer_size)`).
…
